…
      resume_id: None
    ]
  ]
  dist_params:[
    backend: nccl
    port: 29500
  ]
  dist: False
  rank: 0
  world_size: 1
  auto_resume: False
  is_train: False

2026-01-19 20:15:14,610 INFO: Dataset [PairedImagePolarDataset] - ValSet is built.
2026-01-19 20:15:14,610 INFO: Number of images in test dataset ValSet: 188
2026-01-19 20:15:14,616 INFO: Network [latent_encoder_gelu] is created.
2026-01-19 20:15:14,622 INFO: Network: latent_encoder_gelu, with parameters: 640,984
2026-01-19 20:15:14,622 INFO: latent_encoder_gelu(
  (pixel_unshuffle): PixelUnshuffle(downscale_factor=4)
  (conv1): Sequential(
    (0): Conv2d(192, 64, kernel_size=(3, 3), stride=(1, 1), padding=(1, 1))
    (1): GELU(approximate='none')
  )
  (blocks): ModuleList(
    (0-5): 6 x Sequential(
      (0): Conv2d(64, 64, kernel_size=(3, 3), stride=(1, 1), padding=(1, 1))
      (1): GELU(approximate='none')
      (2): Conv2d(64, 64, kernel_size=(3, 3), stride=(1, 1), padding=(1, 1))
    )
  )
  (conv2): Conv2d(64, 64, kernel_size=(3, 3), stride=(1, 1), padding=(1, 1))
  (pool): AdaptiveAvgPool2d(output_size=(4, 4))
  (mlp): MLP(
    (patch_mixer): Sequential(
      (0): Linear(in_features=16, out_features=8, bias=True)
      (1): GELU(approximate='none')
      (2): Linear(in_features=8, out_features=16, bias=True)
    )
    (channel_mixer): Sequential(
      (0): Linear(in_features=64, out_features=256, bias=True)
      (1): GELU(approximate='none')
      (2): Linear(in_features=256, out_features=64, bias=True)
    )
    (norm1): LayerNorm((64,), eps=1e-05, elementwise_affine=True)
    (norm2): LayerNorm((64,), eps=1e-05, elementwise_affine=True)
  )
  (end): Sequential(
    (0): Linear(in_features=64, out_features=256, bias=True)
    (1): GELU(approximate='none')
  )
)
2026-01-19 20:15:14,626 INFO: Network [latent_encoder_gelu] is created.
2026-01-19 20:15:14,632 INFO: Network: latent_encoder_gelu, with parameters: 613,336
2026-01-19 20:15:14,632 INFO: latent_encoder_gelu(
  (pixel_unshuffle): PixelUnshuffle(downscale_factor=4)
  (conv1): Sequential(
    (0): Conv2d(144, 64, kernel_size=(3, 3), stride=(1, 1), padding=(1, 1))
    (1): GELU(approximate='none')
  )
  (blocks): ModuleList(
    (0-5): 6 x Sequential(
      (0): Conv2d(64, 64, kernel_size=(3, 3), stride=(1, 1), padding=(1, 1))
      (1): GELU(approximate='none')
      (2): Conv2d(64, 64, kernel_size=(3, 3), stride=(1, 1), padding=(1, 1))
    )
  )
  (conv2): Conv2d(64, 64, kernel_size=(3, 3), stride=(1, 1), padding=(1, 1))
  (pool): AdaptiveAvgPool2d(output_size=(4, 4))
  (mlp): MLP(
    (patch_mixer): Sequential(
      (0): Linear(in_features=16, out_features=8, bias=True)
      (1): GELU(approximate='none')
      (2): Linear(in_features=8, out_features=16, bias=True)
    )
    (channel_mixer): Sequential(
      (0): Linear(in_features=64, out_features=256, bias=True)
      (1): GELU(approximate='none')
      (2): Linear(in_features=256, out_features=64, bias=True)
    )
    (norm1): LayerNorm((64,), eps=1e-05, elementwise_affine=True)
    (norm2): LayerNorm((64,), eps=1e-05, elementwise_affine=True)
  )
  (end): Sequential(
    (0): Linear(in_features=64, out_features=256, bias=True)
    (1): GELU(approximate='none')
  )
)
2026-01-19 20:15:14,644 INFO: Network [denoising] is created.
2026-01-19 20:15:14,651 INFO: Network: denoising, with parameters: 2,629,937
2026-01-19 20:15:14,651 INFO: denoising(
  (first_layer): Sequential(
    (0): Linear(in_features=768, out_features=512, bias=True)
    (1): LeakyReLU(negative_slope=0.2, inplace=True)
  )
  (blocks): ModuleList(
    (0-1): 2 x Sequential(
      (0): MLP(
        (patch_mixer): Sequential(
          (0): Linear(in_features=16, out_features=8, bias=True)
          (1): GELU(approximate='none')
          (2): Linear(in_features=8, out_features=16, bias=True)
        )
        (channel_mixer): Sequential(
          (0): Linear(in_features=512, out_features=1024, bias=True)
          (1): GELU(approximate='none')
          (2): Linear(in_features=1024, out_features=512, bias=True)
        )
        (norm1): LayerNorm((512,), eps=1e-05, elementwise_affine=True)
        (norm2): LayerNorm((512,), eps=1e-05, elementwise_affine=True)
      )
      (1): GELU(approximate='none')
    )
  )
  (final_layer): Sequential(
    (0): Linear(in_features=512, out_features=256, bias=True)
    (1): GELU(approximate='none')
  )
)
2026-01-19 20:15:14,753 INFO: Network [Transformer] is created.
2026-01-19 20:15:14,828 INFO: Network: Transformer, with parameters: 18,855,655
2026-01-19 20:15:14,828 INFO: Transformer(
  (down_1): Sequential(
    (0): Rearrange('b n c -> b c n')
    (1): Linear(in_features=16, out_features=4, bias=True)
    (2): Rearrange('b c n -> b n c')
    (3): Linear(in_features=256, out_features=256, bias=True)
  )
  (down_2): Sequential(
    (0): Rearrange('b n c -> b c n')
    (1): Linear(in_features=4, out_features=1, bias=True)
    (2): Rearrange('b c n -> b n c')
    (3): Linear(in_features=256, out_features=256, bias=True)
  )
  (patch_embed): OverlapPatchEmbed(
    (proj): Conv2d(3, 48, kernel_size=(3, 3), stride=(1, 1), padding=(1, 1), bias=False)
  )
  (encoder_level1): BasicLayer(
    (blocks): ModuleList(
      (0-2): 3 x TransformerBlock(
        (norm1): LayerNorm(
          (body): WithBias_LayerNorm()
        )
        (attn): Attention(
          (qkv): Conv2d(48, 144, kernel_size=(1, 1), stride=(1, 1), bias=False)
          (qkv_dwconv): Conv2d(144, 144, kernel_size=(3, 3), stride=(1, 1), padding=(1, 1), groups=144, bias=False)
          (project_out): Conv2d(48, 48, kernel_size=(1, 1), stride=(1, 1), bias=False)
        )
        (norm2): LayerNorm(
          (body): WithBias_LayerNorm()
        )
        (ffn): FeedForward(
          (project_in): Conv2d(48, 254, kernel_size=(1, 1), stride=(1, 1), bias=False)
          (dwconv): Conv2d(254, 254, kernel_size=(3, 3), stride=(1, 1), padding=(1, 1), groups=254, bias=False)
          (project_out): Conv2d(127, 48, kernel_size=(1, 1), stride=(1, 1), bias=False)
        )
      )
    )
    (him): HIM(
      (norm1): LayerNorm_Without_Shape(
        (body): WithBias_LayerNorm()
      )
      (norm2): LayerNorm_Without_Shape(
        (body): WithBias_LayerNorm()
      )
      (q): Linear(in_features=48, out_features=48, bias=False)
      (kv): Linear(in_features=256, out_features=96, bias=False)
      (proj): Linear(in_features=48, out_features=48, bias=True)
    )
  )
  (down1_2): Downsample(
    (body): Sequential(
      (0): Conv2d(48, 24, kernel_size=(3, 3), stride=(1, 1), padding=(1, 1), bias=False)
      (1): PixelUnshuffle(downscale_factor=2)
    )
  )
  (encoder_level2): BasicLayer(
    (blocks): ModuleList(
      (0-3): 4 x TransformerBlock(
        (norm1): LayerNorm(
          (body): WithBias_LayerNorm()
        )
        (attn): Attention(
          (qkv): Conv2d(96, 288, kernel_size=(1, 1), stride=(1, 1), bias=False)
          (qkv_dwconv): Conv2d(288, 288, kernel_size=(3, 3), stride=(1, 1), padding=(1, 1), groups=288, bias=False)
          (project_out): Conv2d(96, 96, kernel_size=(1, 1), stride=(1, 1), bias=False)
        )
        (norm2): LayerNorm(
          (body): WithBias_LayerNorm()
        )
        (ffn): FeedForward(
          (project_in): Conv2d(96, 510, kernel_size=(1, 1), stride=(1, 1), bias=False)
          (dwconv): Conv2d(510, 510, kernel_size=(3, 3), stride=(1, 1), padding=(1, 1), groups=510, bias=False)
          (project_out): Conv2d(255, 96, kernel_size=(1, 1), stride=(1, 1), bias=False)
        )
      )
    )
    (him): HIM(
      (norm1): LayerNorm_Without_Shape(
        (body): WithBias_LayerNorm()
      )
      (norm2): LayerNorm_Without_Shape(
        (body): WithBias_LayerNorm()
      )
      (q): Linear(in_features=96, out_features=96, bias=False)
      (kv): Linear(in_features=256, out_features=192, bias=False)
      (proj): Linear(in_features=96, out_features=96, bias=True)
    )
  )
  (down2_3): Downsample(
    (body): Sequential(
      (0): Conv2d(96, 48, kernel_size=(3, 3), stride=(1, 1), padding=(1, 1), bias=False)
      (1): PixelUnshuffle(downscale_factor=2)
    )
  )
  (encoder_level3): BasicLayer(
    (blocks): ModuleList(
      (0-3): 4 x TransformerBlock(
        (norm1): LayerNorm(
          (body): WithBias_LayerNorm()
        )
        (attn): Attention(
          (qkv): Conv2d(192, 576, kernel_size=(1, 1), stride=(1, 1), bias=False)
          (qkv_dwconv): Conv2d(576, 576, kernel_size=(3, 3), stride=(1, 1), padding=(1, 1), groups=576, bias=False)
          (project_out): Conv2d(192, 192, kernel_size=(1, 1), stride=(1, 1), bias=False)
        )
        (norm2): LayerNorm(
          (body): WithBias_LayerNorm()
        )
        (ffn): FeedForward(
          (project_in): Conv2d(192, 1020, kernel_size=(1, 1), stride=(1, 1), bias=False)
          (dwconv): Conv2d(1020, 1020, kernel_size=(3, 3), stride=(1, 1), padding=(1, 1), groups=1020, bias=False)
          (project_out): Conv2d(510, 192, kernel_size=(1, 1), stride=(1, 1), bias=False)
        )
      )
    )
    (him): HIM(
      (norm1): LayerNorm_Without_Shape(
        (body): WithBias_LayerNorm()
      )
      (norm2): LayerNorm_Without_Shape(
        (body): WithBias_LayerNorm()
      )
      (q): Linear(in_features=192, out_features=192, bias=False)
      (kv): Linear(in_features=256, out_features=384, bias=False)
      (proj): Linear(in_features=192, out_features=192, bias=True)
    )
  )
  (down3_4): Downsample(
    (body): Sequential(
      (0): Conv2d(192, 96, kernel_size=(3, 3), stride=(1, 1), padding=(1, 1), bias=False)
      (1): PixelUnshuffle(downscale_factor=2)
    )
  )
  (latent): BasicLayer(
    (blocks): ModuleList(
      (0-3): 4 x TransformerBlock(
        (norm1): LayerNorm(
          (body): WithBias_LayerNorm()
        )
        (attn): Attention(
          (qkv): Conv2d(384, 1152, kernel_size=(1, 1), stride=(1, 1), bias=False)
          (qkv_dwconv): Conv2d(1152, 1152, kernel_size=(3, 3), stride=(1, 1), padding=(1, 1), groups=1152, bias=False)
          (project_out): Conv2d(384, 384, kernel_size=(1, 1), stride=(1, 1), bias=False)
          (ln1): Linear(in_features=256, out_features=384, bias=True)
          (ln2): Linear(in_features=256, out_features=384, bias=True)
        )
        (norm2): LayerNorm(
          (body): WithBias_LayerNorm()
        )
        (ffn): FeedForward(
          (project_in): Conv2d(384, 2042, kernel_size=(1, 1), stride=(1, 1), bias=False)
          (dwconv): Conv2d(2042, 2042, kernel_size=(3, 3), stride=(1, 1), padding=(1, 1), groups=2042, bias=False)
          (project_out): Conv2d(1021, 384, kernel_size=(1, 1), stride=(1, 1), bias=False)
          (ln1): Linear(in_features=256, out_features=384, bias=True)
          (ln2): Linear(in_features=256, out_features=384, bias=True)
        )
      )
    )
  )
  (up4_3): Upsample(
    (body): Sequential(
      (0): Conv2d(384, 768, kernel_size=(3, 3), stride=(1, 1), padding=(1, 1), bias=False)
      (1): PixelShuffle(upscale_factor=2)
    )
  )
  (reduce_chan_level3): Conv2d(384, 192, kernel_size=(1, 1), stride=(1, 1), bias=False)
  (decoder_level3): BasicLayer(
    (blocks): ModuleList(
      (0-3): 4 x TransformerBlock(
        (norm1): LayerNorm(
          (body): WithBias_LayerNorm()
        )
        (attn): Attention(
          (qkv): Conv2d(192, 576, kernel_size=(1, 1), stride=(1, 1), bias=False)
          (qkv_dwconv): Conv2d(576, 576, kernel_size=(3, 3), stride=(1, 1), padding=(1, 1), groups=576, bias=False)
          (project_out): Conv2d(192, 192, kernel_size=(1, 1), stride=(1, 1), bias=False)
        )
        (norm2): LayerNorm(
          (body): WithBias_LayerNorm()
        )
        (ffn): FeedForward(
          (project_in): Conv2d(192, 1020, kernel_size=(1, 1), stride=(1, 1), bias=False)
          (dwconv): Conv2d(1020, 1020, kernel_size=(3, 3), stride=(1, 1), padding=(1, 1), groups=1020, bias=False)
          (project_out): Conv2d(510, 192, kernel_size=(1, 1), stride=(1, 1), bias=False)
        )
      )
    )
    (him): HIM(
      (norm1): LayerNorm_Without_Shape(
        (body): WithBias_LayerNorm()
      )
      (norm2): LayerNorm_Without_Shape(
        (body): WithBias_LayerNorm()
      )
      (q): Linear(in_features=192, out_features=192, bias=False)
      (kv): Linear(in_features=256, out_features=384, bias=False)
      (proj): Linear(in_features=192, out_features=192, bias=True)
    )
  )
  (up3_2): Upsample(
    (body): Sequential(
      (0): Conv2d(192, 384, kernel_size=(3, 3), stride=(1, 1), padding=(1, 1), bias=False)
      (1): PixelShuffle(upscale_factor=2)
    )
  )
  (reduce_chan_level2): Conv2d(192, 96, kernel_size=(1, 1), stride=(1, 1), bias=False)
  (decoder_level2): BasicLayer(
    (blocks): ModuleList(
      (0-3): 4 x TransformerBlock(
        (norm1): LayerNorm(
          (body): WithBias_LayerNorm()
        )
        (attn): Attention(
          (qkv): Conv2d(96, 288, kernel_size=(1, 1), stride=(1, 1), bias=False)
          (qkv_dwconv): Conv2d(288, 288, kernel_size=(3, 3), stride=(1, 1), padding=(1, 1), groups=288, bias=False)
          (project_out): Conv2d(96, 96, kernel_size=(1, 1), stride=(1, 1), bias=False)
        )
        (norm2): LayerNorm(
          (body): WithBias_LayerNorm()
        )
        (ffn): FeedForward(
          (project_in): Conv2d(96, 510, kernel_size=(1, 1), stride=(1, 1), bias=False)
          (dwconv): Conv2d(510, 510, kernel_size=(3, 3), stride=(1, 1), padding=(1, 1), groups=510, bias=False)
          (project_out): Conv2d(255, 96, kernel_size=(1, 1), stride=(1, 1), bias=False)
        )
      )
    )
    (him): HIM(
      (norm1): LayerNorm_Without_Shape(
        (body): WithBias_LayerNorm()
      )
      (norm2): LayerNorm_Without_Shape(
        (body): WithBias_LayerNorm()
      )
      (q): Linear(in_features=96, out_features=96, bias=False)
      (kv): Linear(in_features=256, out_features=192, bias=False)
      (proj): Linear(in_features=96, out_features=96, bias=True)
    )
  )
  (up2_1): Upsample(
    (body): Sequential(
      (0): Conv2d(96, 192, kernel_size=(3, 3), stride=(1, 1), padding=(1, 1), bias=False)
      (1): PixelShuffle(upscale_factor=2)
    )
  )
  (decoder_level1): BasicLayer(
    (blocks): ModuleList(
      (0-2): 3 x TransformerBlock(
        (norm1): LayerNorm(
          (body): WithBias_LayerNorm()
        )
        (attn): Attention(
          (qkv): Conv2d(96, 288, kernel_size=(1, 1), stride=(1, 1), bias=False)
          (qkv_dwconv): Conv2d(288, 288, kernel_size=(3, 3), stride=(1, 1), padding=(1, 1), groups=288, bias=False)
          (project_out): Conv2d(96, 96, kernel_size=(1, 1), stride=(1, 1), bias=False)
        )
        (norm2): LayerNorm(
          (body): WithBias_LayerNorm()
        )
        (ffn): FeedForward(
          (project_in): Conv2d(96, 510, kernel_size=(1, 1), stride=(1, 1), bias=False)
          (dwconv): Conv2d(510, 510, kernel_size=(3, 3), stride=(1, 1), padding=(1, 1), groups=510, bias=False)
          (project_out): Conv2d(255, 96, kernel_size=(1, 1), stride=(1, 1), bias=False)
        )
      )
    )
    (him): HIM(
      (norm1): LayerNorm_Without_Shape(
        (body): WithBias_LayerNorm()
      )
      (norm2): LayerNorm_Without_Shape(
        (body): WithBias_LayerNorm()
      )
      (q): Linear(in_features=96, out_features=96, bias=False)
      (kv): Linear(in_features=256, out_features=192, bias=False)
      (proj): Linear(in_features=96, out_features=96, bias=True)
    )
  )
  (refinement): BasicLayer(
    (blocks): ModuleList(
      (0-3): 4 x TransformerBlock(
        (norm1): LayerNorm(
          (body): WithBias_LayerNorm()
        )
        (attn): Attention(
          (qkv): Conv2d(96, 288, kernel_size=(1, 1), stride=(1, 1), bias=False)
          (qkv_dwconv): Conv2d(288, 288, kernel_size=(3, 3), stride=(1, 1), padding=(1, 1), groups=288, bias=False)
          (project_out): Conv2d(96, 96, kernel_size=(1, 1), stride=(1, 1), bias=False)
        )
        (norm2): LayerNorm(
          (body): WithBias_LayerNorm()
        )
        (ffn): FeedForward(
          (project_in): Conv2d(96, 510, kernel_size=(1, 1), stride=(1, 1), bias=False)
          (dwconv): Conv2d(510, 510, kernel_size=(3, 3), stride=(1, 1), padding=(1, 1), groups=510, bias=False)
          (project_out): Conv2d(255, 96, kernel_size=(1, 1), stride=(1, 1), bias=False)
        )
      )
    )
    (him): HIM(
      (norm1): LayerNorm_Without_Shape(
        (body): WithBias_LayerNorm()
      )
      (norm2): LayerNorm_Without_Shape(
        (body): WithBias_LayerNorm()
      )
      (q): Linear(in_features=96, out_features=96, bias=False)
      (kv): Linear(in_features=256, out_features=192, bias=False)
      (proj): Linear(in_features=96, out_features=96, bias=True)
    )
  )
  (output): Conv2d(96, 3, kernel_size=(3, 3), stride=(1, 1), padding=(1, 1), bias=False)
)
2026-01-19 20:15:14,834 INFO: Loading latent_encoder_gelu model from ./pretrained/net_le_dm_latest.pth, with param key: [params].
2026-01-19 20:15:14,848 INFO: Loading denoising model from ./pretrained/net_d_latest.pth, with param key: [params].
2026-01-19 20:15:15,017 INFO: Loading Transformer model from ./pretrained/net_g_latest.pth, with param key: [params].
…
